cifar-cnn/model_cifar.pt (torch_old, 819110 bytes, 10 tensors)

conv1.weight f4 [16, 3, 3, 3]
00000000: 1623 043d fe00 ab3b cdf7 05be a823 7a3d
00000010: 6fb6 acbd f7de 453e f9d8 163e 6327 473d
00000020: 7bd0 ddbc dd4e e53d 878a 08be 7e38 303e
00000030: d82a 743c 5697 053e a906 f33d f776 513e
00000040: e334 09be 3ced 6b3b ccd1 38be 2ec5 48be
00000050: 3abc 25be 21d5 a7bd 7bbf 253e 024f 973d
00000060: 006e 673d 3253 afbc f195 0c3e 4769 123e
00000070: 495f 6e3e 5014 703e 8ffb 06be 9c00 33bc
00000080: 0f39 94bd 09e6 18be 2494 c73d 0445 c0bd
00000090: 16e3 ef3d 597f 343e dd9f 263e 7fc8 e93c
000000a0: 98d2 febb 8e16 30bd 894d eebd dee7 14be
000000b0: d6e8 0cbd 426b 453e bafe 653c 3c91 5a3e
000000c0: 5c2f 723e bdad aa3d 6f3f c2bb beac eebd
000000d0: 3f8e 44bc 005d 0e3e 27cf d3bd c8a2 b03d
000000e0: 8946 e23d 58e5 c6bd 15d2 80bd a438 e0bd
000000f0: 7f07 23be 8371 db3d fe75 003e b8dc 27be
00000100: 9b42 cb3d 6d33 2b3e 16f8 973d 5f1d bb3d
00000110: 310b 6e3c 9a74 e5bc 349c 533d eb22 04be
00000120: f30e 1c3e 4c68 1fbe 4cad fbbd 7702 e63c
00000130: 3a9a 35be b73f 5a3e 781e 49be 4521 e73d
00000140: ebb6 58bd c554 733e 529e 8e3e f157 5abc
00000150: cb11 2abe abac 4c3d 4166 e0bd a7b1 efbc
00000160: e184 2cbe 491d 0bbe 91d4 003e 674c 403e
00000170: 65a6 19be 7168 26bc 6ed8 883d 1166 a3bd
00000180: f10f 3e3e 8e20 a4bd 26b6 27be 82c6 263e
00000190: d7c5 f03d 375f 89bd 080f 0ebe 7c01 4bbd
000001a0: 2b43 dbbd 6799 46bd b910 2bbe 2ddc 29be
000001b0: c7e7 75be e55d 4b3d f736 523d d1bf 2dbe
000001c0: e4ca 9ebd 8565 783d 90c9 8dbe b019 6cbb
000001d0: 66e3 eebc 0d4c 203e e93a 983d 86a2 cc3e
000001e0: a7ca 3c3e 3bfa d93d e58f c83d 5268 c03d
000001f0: bf7a 17bd 9a72 c33e 2c3c 87be 1f10 4bbe
00000200: b5bc f03a ff2e 05be 6627 73be e9c9 c4bd
00000210: b9db 8abe 8f2d c5bd c007 3b3d 89a0 ba3c
00000220: 441b ecbb 22b7 7ebe d728 81be 7738 53be
00000230: 25e6 e8bd e573 94be d432 9ebd 0c77 4abe
00000240: 6cfe dfbd 6486 bd3d 7d8f 373e 417c 283e
00000250: acbb 9e3d 5e7d 163e 6f70 883d 2ce0 05be
00000260: 9523 d33d 86ef 6e3e 532f 0b3e caff 673e
00000270: 294b 833d 8229 283e 4423 783d 5d75 063e
00000280: fed8 9dbc e2e5 09be 8ac9 333e 8bd6 e5bd
00000290: 18c3 0fbe 3f29 62bb 712e 1d3e 3388 05be
000002a0: aff0 073e 2ba7 14bd 16dd 47be fe30 523e
000002b0: 923d 2fbb f538 96be a9e6 2d3e c216 663d
000002c0: cf40 9cbe 62f4 293e 4fe3 cb3d 3766 4c3d
000002d0: 270b 5c3e 19c4 f6bc f40e 1bbe 3412 f93d
000002e0: 0a4f 173d 8b99 ddbc 0fd4 813e 6750 9abc
000002f0: 4e4a babd 085c bbbd 7fa3 40be f774 85be
00000300: a153 85be e458 3c3d b1bb 43be d6c0 01bd
00000310: 7ee3 913d e0e2 18be efdc 433a 3a83 dfbd
00000320: 3f73 ba3d c89f 233c b089 0e3e 3e4d 21be
00000330: a6c6 cd3d 63e2 48bd f53f 043e c316 dd3d
00000340: 2517 be3d 1ac3 103e c84b 4cbd 6150 b9bd
00000350: 2902 4a3e c731 823e 9f8c 493d 9ca2 863e
00000360: 7430 e53d 6711 3e3e 61de c0bd 4fc9 26be
00000370: 932d d2bd 2ac1 2dbe 54b6 ce3c 7a69 5ebe
00000380: e590 c6bd a381 973d 42d6 993d 36f3 093a
00000390: 9a03 25bd 6817 48be e01d 543d 07a4 a9bd
000003a0: a6d7 13be c290 cfbd 9c39 fb3d 8b71 26be
000003b0: 44eb 3bbd c94a eb3d 4f6b 0fbe b09e 603d
000003c0: 6d23 91ba fdfd 9cbc d9d4 383e 7c0d 683e
000003d0: 8fbb 453e e180 9b3d 0c25 0a3e 486d 183d
000003e0: 8d5a 293d 82f1 653e b9b0 e1bd 2ff5 5bbc
000003f0: 9a7f 423e 221b b3bd 6d30 133e 16a1 573e
0.032260023 0.005218624 -0.1308281 0.06106916 -0.08433234 0.19323336 0.14731206 0.048621546
-0.02707695 0.111966826 -0.13334094 0.1720905 0.014902793 0.13046011 0.11866505 0.20455538
-0.13399081 0.0035999557 -0.18048781 -0.19606468 -0.16185084 -0.08194948 0.16186325 0.073881164
0.05650139 -0.021401975 0.13729073 0.14297973 0.23278536 0.23445249 -0.131819 -0.010925438
-0.072374456 -0.14931501 0.097450525 -0.09388164 0.11713235 0.17626704 0.1627192 0.028537987
-0.0077765696 -0.04299026 -0.116358824 -0.14541575 -0.034401737 0.19279197 0.014037782 0.21344465
0.23650879 0.08333919 -0.005927972 -0.11654042 -0.011996805 0.13902664 -0.103422455 0.08624798
0.1104861 -0.097117126 -0.0629007 -0.10948303 -0.15920828 0.1071501 0.1254501 -0.16392791
0.09924813 0.16718836 0.074203655 0.091364615 0.014529035 -0.028009702 0.05166264 -0.12903945
0.15240078 -0.1556713 -0.12288913 0.028077347 -0.17734614 0.21313368 -0.19640529 0.112856425
-0.05290882 0.23762806 0.27855164 -0.013326631 -0.1660835 0.049969357 -0.109570034 -0.029259516
-0.16847564 -0.1358539 0.12581088 0.18779145 -0.1500488 -0.010156737 0.06681906 -0.07978452
0.18560769 -0.08014022 -0.16378078 0.16286662 0.11756485 -0.06707614 -0.13872921 -0.049561962
-0.10706171 -0.04848614 -0.16705598 -0.16587897 -0.24014197 0.04965009 0.05132195 -0.16967703
-0.07753542 0.06064369 -0.27692842 -0.0036026053 -0.029161166 0.15654011 0.07433111 0.39967746
0.1843668 0.10643431 0.09793071 0.093948975 -0.036982294 0.38173372 -0.26413095 -0.19830368
0.0018366786 -0.13006209 -0.23745498 -0.09608824 -0.2712076 -0.0962783 0.045661688 0.022781627
-0.0072053988 -0.24874547 -0.2522647 -0.20627008 -0.113720216 -0.2899467 -0.077245384 -0.19771975
-0.10937199 0.092541486 0.1792583 0.16453649 0.07750639 0.14696261 0.0666207 -0.13073796
0.10309521 0.23333558 0.13592272 0.2265617 0.0641082 0.16422084 0.060580507 0.13130708
-0.019268509 -0.134666 0.1755735 -0.112225614 -0.14039266 -0.0034509448 0.15349747 -0.13040237
0.13275407 -0.036292236 -0.19517931 0.20526502 -0.002673958 -0.2934033 0.16982521 0.056174047
-0.30518195 0.16597131 0.09955465 0.049902167 0.2148863 -0.030122804 -0.15142423 0.12161675
0.036940612 -0.027050754 0.253571 -0.018837167 -0.09096204 -0.09148413 -0.18812369 -0.260658
-0.26040366 0.04598321 -0.19114567 -0.031678043 0.07123469 -0.14930296 0.00074715813 -0.10913701
0.09104013 0.009986825 0.13919711 -0.15752122 0.10047655 -0.049044024 0.12915023 0.10795357
0.09281758 0.14136925 -0.049876958 -0.09048534 0.19727387 0.25428602 0.049206372 0.26295936
0.11190882 0.18561326 -0.094174154 -0.1628773 -0.10262599 -0.16968217 0.025233425 -0.21719924
-0.09695605 0.07397773 0.075115696 0.00052623765 -0.040286638 -0.19540179 0.051786304 -0.08283239
-0.14437732 -0.10135032 0.122668475 -0.1625425 -0.045878664 0.114888735 -0.14005779 0.054838836
-0.001107318 -0.01916408 0.18049945 0.22661394 0.19309829 0.07592941 0.13490695 0.037213594
0.04134612 0.22455409 -0.11020035 -0.013425156 0.18993989 -0.087454095 0.14373942 0.21057543

conv1.bias f4 [16]
00000000: a2fa 6d3e d27f e5bd 861f 1e3d 89bb 753e
00000010: 4f7f a33e dfe5 433e 526c 9c3e 8d1b 6f3e
00000020: adcb f43d 18e5 4a3e 1e2f 173e 8746 e53d
00000030: f1c4 ea3d 72d7 033e 19cd cfbd 4a35 293c
0.2324014 -0.112060204 0.03860428 0.2399732 0.31933066 0.19130658 0.30551392 0.23350354
0.119529106 0.19813955 0.14764068 0.11195093 0.11463345 0.12875155 -0.10146541 0.0103276465

conv2.weight f4 [32, 16, 3, 3]
00000000: 1976 813d 751d 8ebd 0d2d 31bd f88a 9dbd
00000010: 784d 9fbd 9bc2 9abd 07a9 4b3d 5bb9 9dbd
00000020: 65e9 6e3d 425c 35bd bfe7 923d 7a9d 22bd
00000030: 240a 4bbc e553 9e3d f4eb 8d3d 8a49 943b
00000040: 6373 00bd 4d44 9bbd 3a51 9b3d 987a 87bd
00000050: d3ae ac3c e6a6 9fbd 2d47 5cbc 0523 a53d
00000060: da4f 9a3d 1704 933b da9e a1bd d089 3d3d
00000070: 0a92 9f3c b48a b63d 4251 8dbd 3846 67bd
00000080: e686 38ba 10fc 65bd 5025 763d c2a2 1cbd
00000090: e1e6 203a cb6a c83a b84e 113d 8e21 c7bb
000000a0: 3676 abbd 69c3 923d 8e4b 1b3c 013a efbc
000000b0: 4060 2e3d 7956 b2bc c8ec 383c 023b 983d
000000c0: 1fb5 383d 383e cfbc b633 c03c e763 3ebd
000000d0: e8e5 f1bc 9bb7 90bd d1bb c3bc 9b07 f13c
000000e0: 0e3e 1fbd a7bd 113c effa b13d fa35 2cbb
000000f0: 1fc0 61bd e5a1 993d 1f1d a33d 53e1 753d
00000100: 2705 413d 9a35 303c 46b9 94bd 3294 df3c
00000110: 5322 873d 3f48 3c3d c69d 83bd d941 9fbc
00000120: 5c51 a4bd 4839 40bc f8c6 933d 1679 e0bc
00000130: 7333 82bd d8e3 11bc bbae 983d 8253 ea3c
00000140: b22a 94bd 8ee7 da3c 6d32 a5bc 9cab 0cbd
00000150: fa28 43bd 467f 013d 059a e4bc 19c3 d9bc
00000160: 892a 51bd 2f59 8c3d 19bd 96bd cb75 fabc
00000170: caae b13c 58fd 38bd 5bb6 03bc 874f 4b3c
00000180: 9678 90bd 0056 0fbd 4b35 233d a511 553d
00000190: 3919 9d3d 6f0d 253d 5bd9 803d aa9f bfbc
000001a0: 41af f63b f8a4 6f3d be83 a0bd 4632 21bd
000001b0: 8609 36bd 5014 ffbc d587 f4bb edde 6c3d
000001c0: 89b3 77bd a46c ba3d 5749 3d3c aa82 9b3b
000001d0: f7cd ff3c 9e1b c63c 7407 803d db50 7fbd
000001e0: bd1f 55bc 4f0e a53c 2936 44bd 9067 dabb
000001f0: 14c9 c1bc 914a 3fbb ad8f 0fbd 792b 4bbc
00000200: 4a52 36bd 7007 ad3b dcd3 973d 4847 6a3c
00000210: 1d6d a13d b08c c9bc 61f1 2a3c 0586 123d
00000220: 44db 65bd e747 903c 5b2a 0b3d 01de 7fbd
00000230: 1c26 47b9 1f65 a73d 6af9 863d dfdc 3e3d
00000240: a06b 503d 072b aa3c 8540 9f3d fd57 fa3c
00000250: 7ae8 043c 12d7 65bd 0e11 c13d 3cb5 463d
00000260: 6324 6cbd 4df6 c6bd fc3f bd3c 02f8 f93b
00000270: ba1f 213d e80d 4ebd 921c a8bd 1f9d 3dbd
00000280: 3c3c 1dbd 73a5 db3c da75 ac3d dd80 9b3c
00000290: 88f8 333d 0883 35bd 0aa8 6b3d 355c b3bc
000002a0: daec a73d 3d15 683c c39a 933d d216 303d
000002b0: 415d 4a3d 5de3 17bc 0b6b 1bbd 4087 0bbd
000002c0: 9973 6f3d 47ba 953c 1727 253d 9cdd bd3d
000002d0: 5591 f63d 2c5f 1ebd b103 9c3d 6b6d 263d
000002e0: a914 e03d 0f6d 50bb f5fe cf3d e95a ed3b
000002f0: 6688 18bd 4899 ed3b e339 97bd 0c55 c2bd
00000300: 28cd c6bd d860 08bd 30de 94bd f8ca 86bd
00000310: 28d7 71bc c3ce 853c 85ea a7bd 327f 933d
00000320: e4a3 14bd 6c51 a8bb 9dc7 673d adb9 1bbd
00000330: f4cb 17bd 6d81 be3d 7579 85bd 5e3a 3abc
00000340: 75be 9f3c e986 293d de43 ba3c 53af 87bc
00000350: 6ded 90bc 368c d6bc b8fa afbd d0a7 d3bd
00000360: 47c1 1fbb 2025 f4bc d2f7 d73b a06f 993d
00000370: d362 4dbd e2ce 993d 76e8 813d 746a 5a3c
00000380: efb5 533b 729a e9bd 4480 193d 99cd 6b3c
00000390: 9777 d63c 6d62 303d 7206 663d 0d41 8a3c
000003a0: c30a 8b3d 35dc 40bd 49bc 4d3d 3f6a c6bc
000003b0: ef09 313d d115 0bbc 92e4 8dbc 0d92 873d
000003c0: 568d 99bd b8a3 f0bc 61f2 0e3d 9f5b 883c
000003d0: 97ec ddbc 2a93 5a3d 2e9a 073d d649 243d
000003e0: 3a68 8ebb 695a 39bd 0cfc 67bd 1073 8f3d
000003f0: 0396 993d 747a 18bd 8953 c3bb 8899 983d
0.063213535 -0.06939212 -0.043255854 -0.07692522 -0.07778448 -0.07556649 0.049721744 -0.077013694
0.05832805 -0.044277437 0.07173108 -0.039700963 -0.012392554 0.07730845 0.0692977 0.004525368
-0.03136004 -0.07581387 0.07583852 -0.0661518 0.021079456 -0.07795505 -0.013444704 0.0806332
0.07534762 0.0044865715 -0.07891627 0.046274006 0.019478817 0.08913174 -0.06900264 -0.05646345
-0.00070391444 -0.05614859 0.060094178 -0.038241155 0.0006137919 0.0015290616 0.035475463 -0.006076998
-0.08372156 0.07166178 0.009478463 -0.029202463 0.04257226 -0.021769749 0.011286922 0.0743313
0.045094606 -0.025298223 0.023462158 -0.046481993 -0.029528573 -0.0706627 -0.023893269 0.029422572
-0.03887754 0.008895314 0.0869044 -0.002627729 -0.05511486 0.07501582 0.07964539 0.06002934
0.047124054 0.010754967 -0.072619006 0.027292345 0.06598344 0.045967337 -0.06426577 -0.019440578
-0.080233306 -0.011732407 0.07215685 -0.027401488 -0.063574694 -0.00890442 0.07455202 0.028604273
-0.07234706 0.026721742 -0.020165646 -0.034343347 -0.0476465 0.031615518 -0.027905473 -0.026582288
-0.051065955 0.06852948 -0.07360286 -0.030573746 0.021689791 -0.045163482 -0.008039082 0.0124090975
-0.0705425 -0.034994125 0.039845746 0.05201878 0.076708265 0.040296014 0.06291457 -0.023391563
0.007528216 0.058506936 -0.07837628 -0.039354585 -0.044442676 -0.031137615 -0.0074624815 0.057829786
-0.060473952 0.09102753 0.01155313 0.004745801 0.031226141 0.02418309 0.062514216 -0.06233297
-0.013008055 0.020148424 -0.047903214 -0.0066651776 -0.023655452 -0.0029188732 -0.03504913 -0.012400501
-0.04451207 0.0052804276 0.07413456 0.014299221 0.0788214 -0.024603218 0.010433526 0.035772342
-0.05611731 0.01761241 0.03397594 -0.06246758 -0.00018992316 0.08173584 0.06590541 0.046597358
0.05088389 0.02077247 0.07775978 0.030559534 0.008112067 -0.05611331 0.09427081 0.048512682
-0.05765189 -0.09714947 0.0231018 0.007628442 0.039336897 -0.05030623 -0.08208574 -0.04629242
-0.038387522 0.02681229 0.08420916 0.018982345 0.04393819 -0.044314414 0.0575333 -0.021894554
0.08199473 0.01416522 0.07207253 0.042990513 0.04940534 -0.009270516 -0.03794388 -0.03406453
0.058459852 0.0182773 0.040320482 0.09270784 0.12039439 -0.03866498 0.076178916 0.040631693
0.109414406 -0.0031803285 0.10156051 0.0072435034 -0.037239455 0.0072509386 -0.07384088 -0.09488878
-0.09707099 -0.033295482 -0.072689414 -0.06581682 -0.01476077 0.016333943 -0.08199028 0.07201995
-0.03628911 -0.0051366594 0.05658685 -0.03801887 -0.03705974 0.0930203 -0.06517307 -0.011366455
0.019499997 0.041388426 0.02273744 -0.016563093 -0.017691338 -0.026189905 -0.08592743 -0.10334742
-0.0024376677 -0.029802859 0.006590822 0.07491994 -0.050143074 0.07510163 0.063431665 0.013331044
0.0032304486 -0.11406411 0.03747584 0.01439228 0.026180072 0.043062616 0.05615849 0.016876722
0.06789162 -0.047085006 0.05022839 -0.024220584 0.043222364 -0.008489088 -0.017320905 0.06619654
-0.07497661 -0.029374942 0.03489912 0.01664525 -0.027090354 0.053363003 0.03310602 0.040109478
-0.004345921 -0.045252237 -0.056636855 0.07004368 0.074993156 -0.037226155 -0.005960886 0.07451159

conv2.bias f4 [32]
00000000: 9811 36bd 764a 1b3d 3156 fd3c 0c81 e4bc
00000010: d8e7 813d 7801 913d a77d 523d adb6 17bb
00000020: 8bae 8ebc 65bf 223e 09fa b0bd 1540 bf3d
00000030: 8e6b 4a3d 5b5d 433b 6770 ab3d eba1 243d
00000040: 8a9e b0bd 0520 a0bd c17f 93bc bf94 a93c
00000050: 9459 cabd 7e4d c8bd d8c4 d4bd 8ef8 39bc
00000060: e2aa edbc 5644 053d 9707 04be efcc 63bd
00000070: 133e b53d 268a 82bd 8704 d53d 9f11 e5bd
-0.044450372 0.03791281 0.030924888 -0.027893566 0.06343049 0.07080358 0.051389363 -0.0023149655
-0.017417213 0.15893324 -0.086414404 0.093383946 0.04941898 0.0029810283 0.083710484 0.04019348
-0.08623989 -0.07818607 -0.018005254 0.02070081 -0.09880367 -0.097804055 -0.103891075 -0.011350764
-0.029012147 0.032535873 -0.1289352 -0.05561536 0.0884973 -0.06374006 0.10401254 -0.111850016

fc1.weight f4 [120, 1568]
00000000: af09 91bc d94f f2bb ce55 12bb 7e4a cf3c
00000010: 4ec9 32bc 933a 763c 6ea4 4abc 8428 aebc
00000020: fdf7 ad3c 14f8 84bc 6dec cb3a efbe 99bc
00000030: fb49 6c3c 1d82 0abb 605e 86bc 1523 fbbb
00000040: 5c95 913c b0a8 a8ba 13a1 f8ba 9d78 073c
00000050: a653 2dbc f79e 4ebc 38ce d33b 96ef b13b
00000060: 82a8 b5bc e690 513c 4e07 a5bc c4da 04bc
00000070: 21c1 d6bb 43fd 8ebc 567d 4a3b b202 aa3c
00000080: 02d8 81bc d0f0 c43c 1092 5fba 6c37 4abc
00000090: 76c1 a53b 3d8a c23c 1185 3fba e0df 9e3c
000000a0: 2888 a6bc 2804 f33a e176 6bbc b25b 343c
000000b0: b009 cc3b 0987 ecbb 20b2 9ebc a3fc 4a3b
000000c0: be30 983c 3c57 f6ba 3b88 12bc dd1b a9bc
000000d0: 65b9 853c 40f4 5f3b ec28 8dbc f288 7bbc
000000e0: df38 2cbb 6fb2 b93c edfc 99bc abf6 d03a
000000f0: 0206 8abc 29e1 96ba b993 bd3b caf5 2dba
00000100: cefb b2bc b1f3 d43c 3b53 f8bb 843f 933b
00000110: a754 1dbc 505d 3c3b 6465 9c3c 133f a4bc
00000120: c5e1 893c 35f7 e03c 98e9 45b7 54b1 3e3c
00000130: 373d 87bc 018a 2b3c cf9a 14bb 21fd 863c
00000140: b6dd 603c 6d87 b43c 2eec 02bd a4c9 943c
00000150: a521 c0bc afa1 793b c419 b5bc d56e 95bc
00000160: 534b 95bc 45e1 6abc b72f 8d3c b2dc 07bc
00000170: fcb6 113c 732f fabc 208d 8fbc 0134 043c
00000180: 2346 973c 9393 a13c 9722 7cbc 18d4 3e3c
00000190: ab51 aa3b 9af0 7bbb 4fcb 803b 65ad f2bb
000001a0: d2af ad3c a0dc 8fbb 4e6b feba 6426 99b9
000001b0: 54d3 733c e1bc 8ebc 2c51 bcbb 4956 cf3c
000001c0: 5694 f13b 65d7 6c39 3ab7 80bc b692 623c
000001d0: 672d f7ba 1f92 f33a 9455 e4bb e95f c43b
000001e0: 23c3 0abc 192d 8f3b e13b 6ebc 1749 a73c
000001f0: c0a3 64bc 4839 69bb 2c57 90bc 22bd 30bc
00000200: 14ae a53c 1f16 c23c 40dc f2ba af56 b43c
00000210: 6b5b 4a3c 24c1 a73c a3a1 533c 953e 28bc
00000220: fa38 7a3c b1fd 9e3c 985a 6e39 3d21 263c
00000230: c059 aabb 955c 96ba f0ee 7a3b f8fb 8fbc
00000240: b222 153c a540 b23c 7621 89bc 8523 0a3d
00000250: 0278 18bc 660b b23c da0c 903c 3563 853c
00000260: dad3 d13c e237 dc3c 5da9 39bc 14ca 01bc
00000270: 59a2 fd3c ada0 173b e74d 3cbc 4191 f0bb
00000280: a828 e23c 1eb9 a63c 6c00 0dbc 9ad6 aabb
00000290: 148a 7abb 7976 833b ae1d cd3c 1177 b33c
000002a0: c27b ed3c 3f2d edbc b2ef edbc 826b ee3b
000002b0: b770 5b3c c4d3 843c 8a9e 74bc 5986 403c
000002c0: 9ab4 bdba b820 79bc 886a 8f3c 3841 ab3b
000002d0: c6a9 a03c 642b c13c ba85 cc3b 5a17 063d
000002e0: abd9 da3c 9645 8bbb 8717 cf3c d063 353c
000002f0: 4aee 83bb aac5 e3bb ecd6 ecbb c4e8 61bc
00000300: 4c72 083d edf4 cd3c 94bd ed3b 3673 0c3c
00000310: 7e2d 1abb c85d 2ab9 1d3d 913c 170c 9e3c
00000320: 5717 89bb 84d6 8bb9 c5c2 f43b 9e7d ca3c
00000330: 0347 6f3c 610b 613c 66fd 97ba 6788 f2bc
00000340: 5462 9f3c ce09 7abc 6e29 95bc 3fae afbc
00000350: 8997 023c 6c29 b5bb 5bea e8bb 171c a8bc
00000360: 49ca 0a3b 9a7f 873c 60de 8fbc 946a 13bd
00000370: 7857 2bbd d56f 9fbc ed2c 813b 2c19 943c
00000380: a0a9 c6bc 7388 783c 5f75 eb3a 50b7 c4bc
00000390: f0f3 8dba ae4e 0e3c 434b f2bb c4fa 5c3c
000003a0: 7205 b63c 4b95 c9bb 01f9 37bc ddf9 a8bc
000003b0: f68f 9f3c b053 1cbb 33f0 00bc 9072 bf3c
000003c0: 84cf eb3c c822 093d a549 9b3c 9151 723c
000003d0: c75a b43c 22a7 8bbc f3a8 edbb e20f c2bb
000003e0: eb07 c5bc b2d4 d7bb 1aa0 aebc 373e 65b8
000003f0: 5a96 5cbc add7 e03a f4cf 89bb dd74 163c
-0.017704813 -0.0073947725 -0.0022328976 0.025304075 -0.010912253 0.015028614 -0.012368305 -0.021259554
0.021236414 -0.016231574 0.0015558131 -0.018767802 0.014421935 -0.0021134682 -0.016402423 -0.007664094
0.017771415 -0.0012867656 -0.0018968902 0.008268503 -0.010579025 -0.012611142 0.006463792 0.005430172
-0.022175077 0.012790894 -0.020145085 -0.008108798 -0.0065537845 -0.017454749 0.003089746 0.020753238
-0.01585007 0.02404061 -0.000852854 -0.012342315 0.0050584627 0.023747558 -0.00073059 0.019393861
-0.020328596 0.0018540667 -0.014371605 0.01100819 0.006226741 -0.007218246 -0.019372046 0.0030973337
0.01857793 -0.0018794308 -0.008943613 -0.020643169 0.016323755 0.0034172684 -0.017231427 -0.0153524745
-0.0026279015 0.022668092 -0.018797362 0.0015942653 -0.016848568 -0.0011511195 0.005785432 -0.00066360517
-0.021848585 0.025995107 -0.007578281 0.0044936556 -0.009602702 0.0028742142 0.019091316 -0.020049607
0.016831288 0.027461627 -1.1796503e-05 0.011638958 -0.016508682 0.010469914 -0.002267528 0.016478123
0.013724735 0.022037232 -0.03196352 0.018162556 -0.023453543 0.0038090756 -0.022107013 -0.018241325
-0.018224394 -0.014335935 0.017234666 -0.008292364 0.0088937245 -0.030540204 -0.017523348 0.008069039
0.018466061 0.01972369 -0.015389106 0.011647247 0.005197724 -0.003844297 0.0039304863 -0.007405924
0.021202002 -0.004390314 -0.0019410641 -0.00029211037 0.0148819275 -0.017424049 -0.005746981 0.025309699
0.0073724193 0.00022586955 -0.01571237 0.013828924 -0.0018858135 0.0018582976 -0.0069682095 0.0059928787
-0.008469376 0.0043693897 -0.014540643 0.020420594 -0.013955057 -0.003558712 -0.017619692 -0.01078728
0.020224608 0.023692189 -0.0018528774 0.02201399 0.012350897 0.020477839 0.012916955 -0.010268827
0.015272373 0.019408079 0.00022731198 0.010139761 -0.0051986873 -0.0011471683 0.003828939 -0.017576203
0.00910251 0.02175934 -0.016739588 0.03372528 -0.009305956 0.02173395 0.017584253 0.016282657
0.025613714 0.026882116 -0.011331883 -0.007921714 0.030961202 0.0023136542 -0.011493183 -0.0073415344
0.027607277 0.020351943 -0.008606058 -0.005213571 -0.0038229274 0.004011926 0.025038566 0.021907361
0.028989676 -0.02895224 -0.02904496 0.0072759995 0.0133935725 0.016214259 -0.014930377 0.011750781
-0.0014473379 -0.015205555 0.017506853 0.0052262805 0.019612204 0.02358026 0.0062415274 0.032737114
0.02671512 -0.0042502386 0.025279773 0.01107116 -0.004026209 -0.0069510536 -0.007227769 -0.013788406
0.033312127 0.025141204 0.0072552655 0.00857239 -0.002352565 -0.000162474 0.017729336 0.019292874
-0.0041836905 -0.00026671973 0.0074695074 0.024718102 0.014604333 0.013735623 -0.0011595904 -0.029606057
0.019456066 -0.015261127 -0.018208232 -0.021445392 0.007970699 -0.0055286195 -0.0071080155 -0.020521207
0.00211777 0.016540337 -0.017562091 -0.035990313 -0.041831464 -0.019462505 0.003942123 0.01807841
-0.024250805 0.015169251 0.0017964056 -0.024013191 -0.0010830145 0.008685751 -0.007394226 0.013487522
0.022219393 -0.0061518303 -0.011228801 -0.020626957 0.019477826 -0.0023853593 -0.007869768 0.023370057
0.028785475 0.033480436 0.018956015 0.014789955 0.022015942 -0.017047469 -0.0072528063 -0.0059223035
-0.024051627 -0.0065866346 -0.021316577 -5.4655797e-05 -0.013463581 0.001715412 -0.004205698 0.009183136

fc1.bias f4 [120]
00000000: e97b 30bc 67e3 fdbb 7990 c0bc cb92 223d
00000010: f0be 28bc 93aa 98bc 77b7 16bd 2958 503c
00000020: eb61 6b3c d7e0 0ebc f26e 183d 3578 8a3c
00000030: 137e 9c3b 9846 f8ba ce43 d6bb 993a 9f3c
00000040: 970d 41bc 39f6 e9bb 218d e8bb dd24 d43c
00000050: 6a09 aa3b 6810 96bc b444 64ba e0d5 003c
00000060: 477d 1abc 2268 27bb 2d42 023d 056a 51bc
00000070: dfe4 f5bc da35 2c3c d559 193b 2254 923c
00000080: d749 ad3c 8bab 8a3c 6693 503d a1e1 68bc
00000090: 4fb0 05bd 6890 ccbc 0631 0bbd d33d 1b3d
000000a0: 7845 763c 7bf4 e6bc adf6 983c b16c cfba
000000b0: 9cb7 843c c1d5 073d dcaf 7b3c baaa 983c
000000c0: 03b9 c5bb 4105 44bc 92a0 8cbc c28b bb3b
000000d0: 0895 6b3c d7e6 25bd 4117 30bc 8b7b 0fbd
000000e0: 8412 043c 89fb c1bc e40f 243d ce35 083c
000000f0: f139 23bc 950f 0ebc ea62 d53c 5954 c9bc
00000100: e0dc 663c 3f5f 96bc 27a3 bc3c d2ed 4c3c
00000110: b201 33bc bf45 47bd 536d 593c ac41 9b3b
00000120: 7ab1 003d f6d3 5f3c f5ef c73a 40ef c8bc
00000130: 34b5 293c 8017 82bb 1aab 043d ed71 0fbc
00000140: 227e b83c b8cf a3bc 2297 16bc 7e0a 66bc
00000150: b8a2 603b b8c0 3e3c 500e 4bbb 4e15 8abb
00000160: d0ef 933b 8fbd 783d a5f0 34bb c331 a03c
00000170: a06d cdbc c609 fdbb 45e2 72bc 1cc7 0ebd
00000180: f7c6 9bbb b9ab c9bc e2b9 623b 6dfa b7bc
00000190: d7df 9f3c e90b b13c 5114 edbc e7fe 833c
000001a0: a19d e3bc 6caa cc3c db9c 243c 88b7 e23c
000001b0: ee6c 8abc 16f6 32bb 23ab 953c d623 15bc
000001c0: 846e 063c 7f55 7d3c 7892 0cbc 47a7 063d
000001d0: 52cd 78bc c310 bc3b db83 c2bc 8cef 113c
-0.01077173 -0.0077480557 -0.02350639 0.039690774 -0.010299429 -0.018636024 -0.03679606 0.0127163315
0.014366607 -0.008720598 0.03721518 0.016903022 0.0047757714 -0.0018941937 -0.0065388447 0.019437121
-0.011783025 -0.0071399477 -0.007096902 0.025896484 0.0051891105 -0.01831837 -0.00087077473 0.007863492
-0.0094292825 -0.0025544246 0.03180139 -0.012781625 -0.03001636 0.010510886 0.0023399491 0.017862383
0.021153374 0.016927501 0.05092182 -0.01421395 -0.032638844 -0.024971202 -0.0339823 0.037900757
0.015031211 -0.02819275 0.018672312 -0.0015825239 0.016200833 0.033162836 0.015361752 0.018636096
-0.006034018 -0.011964143 -0.01716641 0.0057234475 0.014378794 -0.04050335 -0.010747732 -0.03502993
0.008061055 -0.023679512 0.040054217 0.008313609 -0.009962545 -0.008670707 0.026048142 -0.024576353
0.014090747 -0.018355964 0.023027016 0.012507873 -0.010925697 -0.0486505 0.013270694 0.0047380533
0.031419255 0.013661375 0.0015254008 -0.024528146 0.010358144 -0.0039700866 0.032389738 -0.008755189
0.022521082 -0.019996509 -0.009191306 -0.0140405875 0.0034276675 0.011642627 -0.0030983873 -0.0042139655
0.004514672 0.060727652 -0.0027609256 0.019554978 -0.025076687 -0.0077221124 -0.014824455 -0.034857854
-0.004753943 -0.024618017 0.0034595658 -0.02245828 0.019515915 0.021612125 -0.028940352 0.016112758
-0.027785124 0.024983607 0.010047163 0.027675405 -0.016897645 -0.0027307323 0.01827008 -0.009102782
0.00820506 0.015462278 -0.008579843 0.03287437 -0.015185671 0.005739303 -0.023744514 0.00890721

fc2.weight f4 [84, 120]
00000000: 3c6c 3abd 919c a9bd 17e3 fc3c 0327 8a3d
00000010: 5192 efbc 8ebf 29bc 5155 7c3d d583 b8bd
00000020: 1ab1 9fbb 3c8e a83d 27f6 50bd 505a 0f3c
00000030: 9772 9a3d ab05 bc3d 952a e53c 1c2f 4e3c
00000040: f588 7ebb 5e0c a53d 2d77 39bd 4d64 cdbc
00000050: 493b 79bd 34a7 3ebd 46c6 c03d a3d0 82bd
00000060: 341b b93b 96d8 2cbc 3127 49bd 91d9 b33d
00000070: b606 743d 785e 483d 6b5f 8c3d 0466 a73d
00000080: 8816 8dbd b09c 82bd 3905 933d 86eb 843d
00000090: a556 643b 5e59 b03d a1bd be3b 1484 dc3c
000000a0: d9ff 883d 7dcd 97bd 35ea 803c 7fc2 d33c
000000b0: 4d8f 943d 9c71 b4bd a1b4 c93d 5b17 813d
000000c0: acc8 6fbc 6510 a63d db91 3abd 64c3 813d
000000d0: e022 1c3d b161 b7bc d9b3 6d3d f53a a7bd
000000e0: 1f87 ee39 f0f8 e8bc c73a 94bc c3ba 063b
000000f0: 6393 e23c 8b97 8cbd 676c 203d 4ade abbd
00000100: d4ac c9bc bac0 4cbd 03d4 523d fdda 3c3d
00000110: de94 b1bd bde9 a1bb e685 293d 51d3 9cbd
00000120: 95df 89bd 2c1b 9e3d f370 89bd ce9e 853a
00000130: 9a7d a03d 8c8e 49bc c1b3 a13d c1bd 18bd
00000140: 7db1 c03d 8bea bebc 7274 acbd 98f7 c0bb
00000150: 914f d2bc 1cb3 8abd 09ee a43d 9988 03bc
00000160: 8001 793c c9db 4c3d dfb5 063d da0e 83bd
00000170: 8f4a ab3d 3b16 bebc 9d5e 85bc beac 18bd
00000180: f2ef 85bd b31e ad3d 8ff2 2d3d 7ff3 18bd
00000190: 0713 3abd 3f9f 37bd 194f 10bd 7460 39bc
000001a0: 8c26 c33d 6299 aabd 3e98 b73d 0ba2 89bd
000001b0: 814c 65bd be37 4abd 8749 6cbd 1727 37bd
000001c0: b49a 88bd 0fa1 babc e220 abbd 63d5 413d
000001d0: c53b e1bb 4e80 9bbd de8c 943c 2226 373d
000001e0: 22b9 50bd 99f8 6dbd 4d41 13bd 38b3 313d
000001f0: ac24 89bd 7535 8b3d 14f8 483d 470a 17bd
00000200: a9d0 ac3c a3b8 743c d384 423c f2b7 173c
00000210: 7a66 7cbd a673 08bd 093b 19bc 7d23 4e3d
00000220: 071e 9cbc 7bc8 9b3d 53d5 7ebd 96cf a4bd
00000230: 1d23 963d c52c 9fbd 281c 223d e2e6 a43c
00000240: bfd0 df3c a441 6cbd d0c3 91bd ab4d 97bd
00000250: fe57 813d 628f 753d 1e4c acbd 990f 91bd
00000260: 042f b23d 0aa5 a5bd d559 43bd db8f 283d
00000270: 8cfe 1fbd 0908 36bd e2c7 af3c 82c7 29bd
00000280: ec02 6dbd d0ce 283d 0f25 8dbc 417e 94bd
00000290: 01be 9d3c a0fd 75bd 7934 79bc bb80 c1bb
000002a0: bea2 86bc 8f7c d83c 456a 6ebd d5f6 a7bc
000002b0: 72f5 6a3d afce 97bd d185 243c f56a 163d
000002c0: 6b1a c8bb 6133 a9bc a47d acbd 7d8a 2d3c
000002d0: 2a65 f5bb a377 a8bd be8f 2dbd f3e7 a1bd
000002e0: 44a5 59bd 6fc5 d83c 2918 803d eb01 5fbd
000002f0: 1f25 9cbd 3a76 7d3d f1f2 1cbc eac6 643d
00000300: 2c43 ccbc e958 42bd 49ca 043d 8f53 1f3d
00000310: 89ea 7bbd 8b56 fe39 0eee 8a3d a350 64bd
00000320: e4ea 8dbd 5683 e2bc e893 b3bc f67f a53c
00000330: 7094 823b 19f7 883c 5a3d acbd 4d38 903d
00000340: 04a4 2abd 2d2f afbd 6c41 c03c 961f b43d
00000350: 4ef2 0e3d 4992 82bd 8865 e13c c142 b23c
00000360: 673e 973d cf16 0fbc f334 5d3d 3fb6 9bba
00000370: 3112 aa3d 1cde 8f3d dbc5 563d 81e9 c13b
00000380: a8bf 47bd 95a3 953d a0fc 66bd 961c 0ebd
00000390: 2da5 043d 018d aabd 89ae 963c 3a06 183d
000003a0: 3df5 3ebc 1228 323d 6ddb a73d 96ea 853d
000003b0: 662a 98bd 5d05 5abd b90c febc 1154 5a3d
000003c0: 83f2 713d fc93 2f3d 981b b5bd 34b5 923d
000003d0: b60a a13b 8df6 b9bc da90 653d 498a 423d
000003e0: 54ee b5bd 980e 3bbd aac4 8e3d 1bdf 6bbc
000003f0: 96ee 0bbd c4ec e83c 70f8 ea3c e557 923d
-0.045513377 -0.08281816 0.030870004 0.06745722 -0.029244574 -0.010360612 0.0616048 -0.0900952
-0.004873407 0.08230254 -0.051016 0.0087495595 0.075413875 0.091807686 0.027974406 0.012584474
-0.0038838957 0.080589995 -0.04527967 -0.025072241 -0.060847554 -0.046546176 0.09412818 -0.063874505
0.005648995 -0.010549685 -0.04910964 0.08781732 0.059576713 0.048918217 0.06854137 0.08173755
-0.06889063 -0.06377542 0.071787305 0.06490235 0.0034841683 0.086107954 0.0058209454 0.026918449
0.06689424 -0.07412241 0.015736679 0.025849579 0.07253895 -0.08810732 0.09848905 0.06303283
-0.014635246 0.08108596 -0.045549255 0.06336096 0.038119197 -0.02238545 0.058032844 -0.08165542
0.0004549557 -0.028439015 -0.018094433 0.0020558096 0.02765817 -0.06864842 0.03916588 -0.08392008
-0.024618544 -0.049988486 0.05147172 0.04610728 -0.08670972 -0.004941194 0.04138746 -0.07657493
-0.06732098 0.077200264 -0.067109965 0.0010194422 0.078364566 -0.012302052 0.078956135 -0.03729034
0.09408853 -0.023305198 -0.08420648 -0.0058888905 -0.025672706 -0.06772444 0.08053214 -0.008028173
0.0151981115 0.05001429 0.03288829 -0.06399317 0.0836383 -0.02320396 -0.016280467 -0.037274115
-0.065399066 0.08453121 0.04246765 -0.03734159 -0.045428302 -0.044829603 -0.035231683 -0.0113145
0.095288366 -0.08330037 0.08964585 -0.0672036 -0.055981163 -0.049369566 -0.05768731 -0.044715013
-0.06670132 -0.022781877 -0.08355881 0.047322642 -0.00687358 -0.075928316 0.018133577 0.0447141
-0.050957806 -0.05809841 -0.035950948 0.043383807 -0.06696448 0.067973055 0.04906471 -0.036875036
0.02109559 0.014936599 0.011872488 0.009260165 -0.061621167 -0.033313416 -0.009352454 0.050326813
-0.019057287 0.07606598 -0.06221516 -0.080474064 0.07330916 -0.07772211 0.039577633 0.020129625
0.027321218 -0.057679787 -0.071174264 -0.07387861 0.06315611 0.059951194 -0.08412956 -0.07083053
0.08700374 -0.08088119 -0.047693092 0.041152816 -0.039061114 -0.044441257 0.021457616 -0.04145003
-0.057864115 0.041212857 -0.017229585 -0.072506435 0.01925564 -0.06005633 -0.015210264 -0.0059052384
-0.016435023 0.026426582 -0.058206815 -0.02050344 0.05736298 -0.07412469 0.01004167 0.036723096
-0.006106665 -0.020654382 -0.084224015 0.0105921 -0.0074888663 -0.08225944 -0.04237341 -0.07905569
-0.053136125 0.026461331 0.06254608 -0.05444519 -0.07624268 0.061880328 -0.009579406 0.05585376
-0.024934374 -0.047448073 0.032419477 0.038898047 -0.061502967 0.00048511135 0.067836866 -0.055740964
-0.069295675 -0.027650516 -0.021921113 0.020202618 0.0039849803 0.016719388 -0.084101394 0.070419885
-0.041660324 -0.0855392 0.023468696 0.08795087 0.03489905 -0.06375558 0.027514234 0.021760346
0.07384949 -0.008733465 0.054005574 -0.0011879875 0.08304251 0.07024786 0.052434783 0.0059177284
-0.048766762 0.073065914 -0.056393266 -0.03469523 0.032384086 -0.083276756 0.018393772 0.037115313
-0.011655149 0.043495245 0.08196149 0.06538884 -0.07429962 -0.05322777 -0.031011926 0.05330283
0.059069168 0.04286574 -0.08843154 0.07163468 0.004914607 -0.022700572 0.056046344 0.04749516
-0.08883348 -0.045668215 0.069711044 -0.014396454 -0.03416308 0.028433211 0.028682917 0.07145671

fc2.bias f4 [84]
00000000: 0d7e 93bd 5854 5ebd 1260 6c3c bb0b 7fbc
00000010: f0ff 823c f9a4 b23d 71ce babd 77f6 743d
00000020: f868 383e c8e0 a7bd 4866 30bd 0f9f 93bc
00000030: b696 9bbd 5169 153e fb2f 043d bcc7 17bd
00000040: a41c 4a3d 5417 6f3d c67d 2dbd 8e01 543d
00000050: dce4 2dbb 05e5 b43d b6a3 e4bd 82ab 14ba
00000060: fe7c 5dbd da9b 74bd 008b 91bd 9bac e93c
00000070: 79d1 dbbc a918 043e 9832 89bd 3059 c83d
00000080: eb20 733c d5af a63d a537 eb3d 501c 4abc
00000090: 63f4 cdbd 08ca b53d 4bbb 963d 22aa b23c
000000a0: 5dcc f73c 7d35 023e 9f93 0e3e 748d f2bc
000000b0: 275d 84bd 44d4 aa3d e212 53bd f9fd 0f3c
000000c0: 3f07 adbd 8228 e7bc 23a4 a2bd e954 a83d
000000d0: 533e 233d a6bb fa3c 4181 c4bb 1eb7 1e3d
000000e0: 991c efbc 7b63 69bd fe67 4ebd f3f5 9f3d
000000f0: 7a72 4abb b166 80bd ea90 043e 5d24 af3d
00000100: 8704 cbbd 5599 14bd 6f2a b13c 2426 193c
00000110: 2599 183d 2e03 90bd 31a6 553d 6645 c3bc
00000120: 9765 e2bc 23c6 13bc dfa0 243b 84a1 653d
00000130: 4405 75bd c8d2 cc3d bd78 ce3d 03f3 ce3c
00000140: f47a c53c 97bc 7fbd 8d70 e33d 79d9 b43d
-0.07201777 -0.054279655 0.014427202 -0.015566762 0.015991181 0.08722872 -0.09121407 0.05980536
0.18008792 -0.081971705 -0.043066293 -0.018020181 -0.07597105 0.14590956 0.03227232 -0.037055716
0.04934372 0.058371857 -0.042356275 0.051759295 -0.0026534116 0.088327445 -0.11164038 -0.00056713086
-0.05407428 -0.059718944 -0.0710659 0.028524688 -0.026833283 0.12900032 -0.06699103 0.09782636
0.014839391 0.08139006 0.11485223 -0.012335852 -0.10056379 0.08876425 0.07359942 0.021809641
0.030248815 0.12715717 0.139235 -0.029608466 -0.0646308 0.08341268 -0.05153168 0.008788579
-0.08448648 -0.028217558 -0.07941463 0.0821932 0.03985436 0.030607056 -0.0059968536 0.038748853
-0.029188441 -0.056979638 -0.050392143 0.07810583 -0.0030890987 -0.06269587 0.12945905 0.085518576
-0.09912973 -0.03627904 0.02162668 0.009347472 0.037255425 -0.070318565 0.052160446 -0.023836803
-0.027636332 -0.009019407 0.00251203 0.056062236 -0.059819475 0.10001141 0.10081623 0.025262361
0.02410648 -0.062435713 0.11105452 0.08830542

fc3.weight f4 [10, 84]
00000000: 52e4 963d 7cf4 35bd 50cb b2bd c6d7 a8bc
00000010: 1ca6 8a3d ffa8 093e ef15 a5bd 28ac 753e
00000020: 0b02 a4bd 1617 02be 3843 813d d168 df3d
00000030: 7368 243e 32f5 1b3d 8508 103e d4d5 b6bd
00000040: 745e d339 b110 503e c7cd e6bc 8112 ab3c
00000050: 9a77 113d c43d d23d 9c75 e03c 15ca cdbd
00000060: 5590 0e3d 5451 0a3e 589b a5bb dcc3 f3ba
00000070: e178 95bd 0fc2 cbbd 928d 943d a80a fc3d
00000080: bfd2 243c b3fe 153e 0d5d e83d bec5 bf3d
00000090: aa06 ff3d 064e 96bd 2db4 23bc 0a0d e83d
000000a0: 712d 05be 5c25 12be 1f81 f1bb 5804 90bd
000000b0: 1607 ea3d 1652 d33d 94fc 67bd 37f2 8f3d
000000c0: 5dd7 613d f0a2 93bd 63a3 263e 6571 7fbd
000000d0: f7f2 12be 6327 f33c 5639 593d 90b0 c5bd
000000e0: c3d0 373d 6623 813c 4242 c93d c13e 9f3c
000000f0: 0f5f 15bd 2921 a5bd 310c 93bd f6db 863d
00000100: 9877 14bd 0614 2a3e 654a 213d f4c0 ecbc
00000110: 6c71 c13c 9d96 313d ff58 0ebe 6d27 e0bd
00000120: 8620 0d3e 1154 8dbd 7fd5 153e 76f9 56bb
00000130: 3e51 54bd 1ae7 9abd 3c02 0dbd 8b27 2dbd
00000140: 5c29 a53b 643c 5a3d e1c8 e93c 2aba bf3d
00000150: d08d 823d c185 54bc cd2f 13bd e38b 273d
00000160: 4a88 54bd f43c b03d 66f5 673d 4810 5fbc
00000170: 4527 3dbe 150c 6e3c 9e7f d63b 2a85 e43d
00000180: becf 073e deb5 53be f365 50bc cfc5 a2bd
00000190: e6b7 5a3e f645 91bd adf4 543e d191 873d
000001a0: d29e 82bd 4d9a 9e3d 8ab1 253e e34b 333e
000001b0: f41a 953d ab9f 3f3e d485 303d e61b 2fbe
000001c0: 7444 943d 310c 083b 756e 333d e7b9 ea3b
000001d0: afc2 a9bd c391 cb3d 1eb4 5cbd 8c19 463d
000001e0: de07 e83d c20d 693d 3f8b 01bd 79a8 abbd
000001f0: 288e 1ebe c88b 3ebe c907 49be 50f9 98bd
00000200: cd02 d03d a376 8d3d 8534 a53e a20c 25be
00000210: dd13 56bb 6fd8 9f3d c008 c6bc 5e21 953c
00000220: ca2a 06be aa61 3d3e 818a 353e 5262 85bb
00000230: f9e2 cebd 13cc fbbd 475a 673d 3a75 503c
00000240: efa5 8a3b f679 7b3d 2fc2 14be 1784 173d
00000250: 13e2 293e dc5b 923d 44ee e53d 9671 ea3d
00000260: f5b1 72bd 4ae0 e1b8 e485 933c 1313 07bd
00000270: e9e7 d3bd 7085 863d d3b8 4d3e a171 2bbd
00000280: 1f4c 38bd 4767 51bd 56fd e1bd e5e9 eebd
00000290: 0360 083e 3083 d63d ec1b 6e3d 820b 05be
000002a0: d000 bd3d c770 7cbb fc74 9fbd 6326 993d
000002b0: d1d2 b03d 49b9 e0bb 80ec 34be 1d4d dd3c
000002c0: 6f07 e93d a935 debd 8a6f 1e3e 0ca2 a13b
000002d0: f71f df3d e414 4f3e e28c a03d 3a5d 063d
000002e0: 399b 3f3e a8e2 773d 13fa 16be e64f bf3d
000002f0: 0551 ca3c 3efa c83d e3e9 5cbd 8616 53bd
00000300: ed4c 24bd fe5b c13d 7aa1 0c3d 8fbd af3d
00000310: da6b 2dbe 2ab1 f7bc 067c a03d b0c1 e53d
00000320: 3e45 c8bd a4d0 67bd 495e 493e fa5d 053e
00000330: 6ec1 703d 4689 f53c b98a bf3c f41f 063e
00000340: 40e8 5b3d a03d 303d 95fc 713d c0a3 953b
00000350: 374d a3bd f2cc 363d 1f27 99bd 4b3c d13d
00000360: 836c 8f3d 1f1a 8c3d 3896 71bd 23c0 bebd
00000370: 877b df3b 574f 84bd a5e4 3abd 410e 423d
00000380: c37e ae3d c4f5 cf3d d717 a23d 536a 93bd
00000390: 61ed cdbd 74e9 a23d 4abf 363e e889 853d
000003a0: 9b39 96bc 5c5a ddbc 8c51 0cbe 5001 c5bd
000003b0: 5a52 7cbc f7b1 ce3d a685 5c3c ccfd c13d
000003c0: d88c 05bd ffcf cdbd 5708 1b3d 5911 5a3d
000003d0: 030d 43bd 5a40 6ebd ba26 083c f069 b8bd
000003e0: 56bd 583c b993 1f3c f164 2e3e 8a58 353e
000003f0: 80f9 0ebc 6f3a 9cbd 2d72 01ba 1031 d6bc
0.073677674 -0.04442261 -0.08730185 -0.020610701 0.06769964 0.13443373 -0.08060824 0.23991454
-0.08008202 -0.12704119 0.06311649 0.10908664 0.16055469 0.038075633 0.1406575 -0.08927503
0.0004031543 0.20318867 -0.028174294 0.020882847 0.03551445 0.10265687 0.02739983 -0.1004831
0.034805615 0.13507587 -0.005053919 -0.0018597799 -0.072984464 -0.09949123 0.07253565 0.1230672
0.010060011 0.14647941 0.11345873 0.09363888 0.12452443 -0.073391005 -0.009991688 0.11330612
-0.13005616 -0.14272064 -0.0073701288 -0.070320785 0.11427133 0.10318391 -0.05663736 0.07028621
0.055137027 -0.07208812 0.16273265 -0.062364 -0.14350496 0.029681867 0.053033195 -0.09652817
0.044876825 0.01576395 0.09827091 0.019439103 -0.036467608 -0.080629654 -0.0718006 0.06584923
-0.036246866 0.16609201 0.03937759 -0.028900601 0.023613654 0.043356527 -0.13901137 -0.1094502
0.13781938 -0.069008 0.14632224 -0.00328025 -0.05183529 -0.075636104 -0.03442596 -0.04227404
0.005040331 0.05328025 0.02853817 0.0936168 0.06374705 -0.012971343 -0.03593426 0.04090489
-0.051887788 0.08605376 0.056630515 -0.013614722 -0.18472011 0.014529248 0.006545975 0.111582115
0.13262841 -0.20674846 -0.012719619 -0.07947885 0.21359214 -0.07093422 0.20796461 0.06619609
-0.06377949 0.07744274 0.16181007 0.17509417 0.072805315 0.18713252 0.04309638 -0.17100486
0.07239619 0.002075922 0.043806512 0.0071632746 -0.08289086 0.09939911 -0.05388271 0.048364207
0.113296255 0.056897886 -0.031626936 -0.08381743 -0.15483916 -0.1860801 -0.19631876 -0.074694276
0.10156784 0.06907394 0.32266632 -0.161181 -0.0032665648 0.07804953 -0.024174094 0.018204387
-0.1310226 0.18494287 0.17728616 -0.0040705586 -0.10101885 -0.122947834 0.05648258 0.0127232615
0.0042312066 0.061395608 -0.145272 0.036991205 0.16590147 0.07146427 0.11227086 0.11447446
-0.059251744 -0.00010770613 0.01800818 -0.032977175 -0.10346968 0.0656842 0.20090036 -0.04185641
-0.04499447 -0.051123884 -0.11034648 -0.116657056 0.13317876 0.10474241 0.058132097 -0.12992671
0.092286706 -0.003851937 -0.07785985 0.07478025 0.0863396 -0.006858025 -0.17668343 0.02701431
0.11378371 -0.108500786 0.15472236 0.0049326476 0.10894769 0.20222813 0.07839371 0.03280375
0.18711556 0.06051889 -0.14743833 0.09341411 0.024696836 0.09813355 -0.05393399 -0.051535152
-0.040112425 0.09441374 0.034333684 0.08581077 -0.16935673 -0.030235846 0.078361556 0.112185836
-0.09778832 -0.05659546 0.19664873 0.1302413 0.05877822 0.029972684 0.023381578 0.13098127
0.053688288 0.04302752 0.05907877 0.0045666397 -0.07973712 0.044629045 -0.07478165 0.10216578
0.07003119 0.0684092 -0.05898115 -0.09313991 0.0068201455 -0.064604454 -0.04562821 0.047376875
0.08520272 0.10154298 0.07914703 -0.07198014 -0.10055042 0.07954684 0.17846408 0.06520444
-0.018338015 -0.027020626 -0.13702983 -0.09619391 -0.0154004935 0.10092538 0.013459599 0.09472236
-0.032605022 -0.10049438 0.03784975 0.0532392 -0.04761983 -0.05816684 0.008310014 -0.09004581
0.013228735 0.00973981 0.17030694 0.17709556 -0.008726478 -0.07628333 -0.0004937973 -0.026146442

fc3.bias f4 [10]
00000000: e305 e83a f5e7 03be c5ac 853e c9a8 983e
00000010: cc41 593e b8cb f7bd 4cf0 f53c a036 7fbd
00000020: 0b89 e73d f236 4fbd
0.001770195 -0.12881453 0.26108375 0.29816273 0.21216506 -0.12099403 0.030021809 -0.062307954
0.11305436 -0.05058951
